…
  0%|          | 0/252 [00:00<?, ?it/s]{'loss': BaselineLoss(), 'optimizer_class': <class 'torch.optim.sgd.SGD'>, 'learning_rate': 0.0005, 'num_updates': 100, 'nrounds': 9, 'training_dataloaders': [<torch.utils.data.dataloader.DataLoader object at 0x7f769082a8e0>, <torch.utils.data.dataloader.DataLoader object at 0x7f769082a550>, <torch.utils.data.dataloader.DataLoader object at 0x7f769082a880>, <torch.utils.data.dataloader.DataLoader object at 0x7f769082a4f0>, <torch.utils.data.dataloader.DataLoader object at 0x7f769082a790>, <torch.utils.data.dataloader.DataLoader object at 0x7f7690790f10>], 'dp_dynamic_noise_multiplier': 463.77293944358826, 'model': Baseline(
  (model): VisionTransformer(
    (conv_proj): Conv2d(3, 768, kernel_size=(16, 16), stride=(16, 16))
    (encoder): Encoder(
      (dropout): Dropout(p=0.0, inplace=False)
      (layers): Sequential(
        (encoder_layer_0): EncoderBlock(
          (ln_1): LayerNorm((768,), eps=1e-06, elementwise_affine=True)
          (self_attention): MultiheadAttention(
            (out_proj): NonDynamicallyQuantizableLinear(in_features=768, out_features=768, bias=True)
          )
          (dropout): Dropout(p=0.0, inplace=False)
          (ln_2): LayerNorm((768,), eps=1e-06, elementwise_affine=True)
          (mlp): MLPBlock(
            (0): Linear(in_features=768, out_features=3072, bias=True)
            (1): GELU(approximate='none')
            (2): Dropout(p=0.0, inplace=False)
            (3): Linear(in_features=3072, out_features=768, bias=True)
            (4): Dropout(p=0.0, inplace=False)
          )
        )
        (encoder_layer_1): EncoderBlock(
          (ln_1): LayerNorm((768,), eps=1e-06, elementwise_affine=True)
          (self_attention): MultiheadAttention(
            (out_proj): NonDynamicallyQuantizableLinear(in_features=768, out_features=768, bias=True)
          )
          (dropout): Dropout(p=0.0, inplace=False)
          (ln_2): LayerNorm((768,), eps=1e-06, elementwise_affine=True)
          (mlp): MLPBlock(
            (0): Linear(in_features=768, out_features=3072, bias=True)
            (1): GELU(approximate='none')
            (2): Dropout(p=0.0, inplace=False)
            (3): Linear(in_features=3072, out_features=768, bias=True)
            (4): Dropout(p=0.0, inplace=False)
          )
        )
        (encoder_layer_2): EncoderBlock(
          (ln_1): LayerNorm((768,), eps=1e-06, elementwise_affine=True)
          (self_attention): MultiheadAttention(
            (out_proj): NonDynamicallyQuantizableLinear(in_features=768, out_features=768, bias=True)
          )
          (dropout): Dropout(p=0.0, inplace=False)
          (ln_2): LayerNorm((768,), eps=1e-06, elementwise_affine=True)
          (mlp): MLPBlock(
            (0): Linear(in_features=768, out_features=3072, bias=True)
            (1): GELU(approximate='none')
            (2): Dropout(p=0.0, inplace=False)
            (3): Linear(in_features=3072, out_features=768, bias=True)
            (4): Dropout(p=0.0, inplace=False)
          )
        )
        (encoder_layer_3): EncoderBlock(
          (ln_1): LayerNorm((768,), eps=1e-06, elementwise_affine=True)
          (self_attention): MultiheadAttention(
            (out_proj): NonDynamicallyQuantizableLinear(in_features=768, out_features=768, bias=True)
          )
          (dropout): Dropout(p=0.0, inplace=False)
          (ln_2): LayerNorm((768,), eps=1e-06, elementwise_affine=True)
          (mlp): MLPBlock(
            (0): Linear(in_features=768, out_features=3072, bias=True)
            (1): GELU(approximate='none')
            (2): Dropout(p=0.0, inplace=False)
            (3): Linear(in_features=3072, out_features=768, bias=True)
            (4): Dropout(p=0.0, inplace=False)
          )
        )
        (encoder_layer_4): EncoderBlock(
          (ln_1): LayerNorm((768,), eps=1e-06, elementwise_affine=True)
          (self_attention): MultiheadAttention(
            (out_proj): NonDynamicallyQuantizableLinear(in_features=768, out_features=768, bias=True)
          )
          (dropout): Dropout(p=0.0, inplace=False)
          (ln_2): LayerNorm((768,), eps=1e-06, elementwise_affine=True)
          (mlp): MLPBlock(
            (0): Linear(in_features=768, out_features=3072, bias=True)
            (1): GELU(approximate='none')
            (2): Dropout(p=0.0, inplace=False)
            (3): Linear(in_features=3072, out_features=768, bias=True)
            (4): Dropout(p=0.0, inplace=False)
          )
        )
        (encoder_layer_5): EncoderBlock(
          (ln_1): LayerNorm((768,), eps=1e-06, elementwise_affine=True)
          (self_attention): MultiheadAttention(
            (out_proj): NonDynamicallyQuantizableLinear(in_features=768, out_features=768, bias=True)
          )
          (dropout): Dropout(p=0.0, inplace=False)
          (ln_2): LayerNorm((768,), eps=1e-06, elementwise_affine=True)
          (mlp): MLPBlock(
            (0): Linear(in_features=768, out_features=3072, bias=True)
            (1): GELU(approximate='none')
            (2): Dropout(p=0.0, inplace=False)
            (3): Linear(in_features=3072, out_features=768, bias=True)
            (4): Dropout(p=0.0, inplace=False)
          )
        )
        (encoder_layer_6): EncoderBlock(
          (ln_1): LayerNorm((768,), eps=1e-06, elementwise_affine=True)
          (self_attention): MultiheadAttention(
            (out_proj): NonDynamicallyQuantizableLinear(in_features=768, out_features=768, bias=True)
          )
          (dropout): Dropout(p=0.0, inplace=False)
          (ln_2): LayerNorm((768,), eps=1e-06, elementwise_affine=True)
          (mlp): MLPBlock(
            (0): Linear(in_features=768, out_features=3072, bias=True)
            (1): GELU(approximate='none')
            (2): Dropout(p=0.0, inplace=False)
            (3): Linear(in_features=3072, out_features=768, bias=True)
            (4): Dropout(p=0.0, inplace=False)
          )
        )
        (encoder_layer_7): EncoderBlock(
          (ln_1): LayerNorm((768,), eps=1e-06, elementwise_affine=True)
          (self_attention): MultiheadAttention(
            (out_proj): NonDynamicallyQuantizableLinear(in_features=768, out_features=768, bias=True)
          )
          (dropout): Dropout(p=0.0, inplace=False)
          (ln_2): LayerNorm((768,), eps=1e-06, elementwise_affine=True)
          (mlp): MLPBlock(
            (0): Linear(in_features=768, out_features=3072, bias=True)
            (1): GELU(approximate='none')
            (2): Dropout(p=0.0, inplace=False)
            (3): Linear(in_features=3072, out_features=768, bias=True)
            (4): Dropout(p=0.0, inplace=False)
          )
        )
        (encoder_layer_8): EncoderBlock(
          (ln_1): LayerNorm((768,), eps=1e-06, elementwise_affine=True)
          (self_attention): MultiheadAttention(
            (out_proj): NonDynamicallyQuantizableLinear(in_features=768, out_features=768, bias=True)
          )
          (dropout): Dropout(p=0.0, inplace=False)
          (ln_2): LayerNorm((768,), eps=1e-06, elementwise_affine=True)
          (mlp): MLPBlock(
            (0): Linear(in_features=768, out_features=3072, bias=True)
            (1): GELU(approximate='none')
            (2): Dropout(p=0.0, inplace=False)
            (3): Linear(in_features=3072, out_features=768, bias=True)
            (4): Dropout(p=0.0, inplace=False)
          )
        )
        (encoder_layer_9): EncoderBlock(
          (ln_1): LayerNorm((768,), eps=1e-06, elementwise_affine=True)
          (self_attention): MultiheadAttention(
            (out_proj): NonDynamicallyQuantizableLinear(in_features=768, out_features=768, bias=True)
          )
          (dropout): Dropout(p=0.0, inplace=False)
          (ln_2): LayerNorm((768,), eps=1e-06, elementwise_affine=True)
          (mlp): MLPBlock(
            (0): Linear(in_features=768, out_features=3072, bias=True)
            (1): GELU(approximate='none')
            (2): Dropout(p=0.0, inplace=False)
            (3): Linear(in_features=3072, out_features=768, bias=True)
            (4): Dropout(p=0.0, inplace=False)
          )
        )
        (encoder_layer_10): EncoderBlock(
          (ln_1): LayerNorm((768,), eps=1e-06, elementwise_affine=True)
          (self_attention): MultiheadAttention(
            (out_proj): NonDynamicallyQuantizableLinear(in_features=768, out_features=768, bias=True)
          )
          (dropout): Dropout(p=0.0, inplace=False)
          (ln_2): LayerNorm((768,), eps=1e-06, elementwise_affine=True)
          (mlp): MLPBlock(
            (0): Linear(in_features=768, out_features=3072, bias=True)
            (1): GELU(approximate='none')
            (2): Dropout(p=0.0, inplace=False)
            (3): Linear(in_features=3072, out_features=768, bias=True)
            (4): Dropout(p=0.0, inplace=False)
          )
        )
        (encoder_layer_11): EncoderBlock(
          (ln_1): LayerNorm((768,), eps=1e-06, elementwise_affine=True)
          (self_attention): MultiheadAttention(
            (out_proj): NonDynamicallyQuantizableLinear(in_features=768, out_features=768, bias=True)
          )
          (dropout): Dropout(p=0.0, inplace=False)
          (ln_2): LayerNorm((768,), eps=1e-06, elementwise_affine=True)
          (mlp): MLPBlock(
            (0): Linear(in_features=768, out_features=3072, bias=True)
            (1): GELU(approximate='none')
            (2): Dropout(p=0.0, inplace=False)
            (3): Linear(in_features=3072, out_features=768, bias=True)
            (4): Dropout(p=0.0, inplace=False)
          )
        )
      )
      (ln): LayerNorm((768,), eps=1e-06, elementwise_affine=True)
    )
    (heads): Sequential(
      (head): Linear(in_features=768, out_features=8, bias=True)
    )
  )
), 'dp_target_epsilon': 50.0, 'dp_target_delta': 0.1, 'dp_max_grad_norm': 1.1}  0%|          | 0/252 [00:00<?, ?it/s]

Traceback (most recent call last):
  File "create_fed_isic_dp_results.py", line 235, in <module>
    s = FedAvg(**current_args, log=False)
TypeError: __init__() got an unexpected keyword argument 'dp_dynamic_noise_multiplier'
